models/best.pt (torch, 58851 bytes, 6 tensors)

embedding.weight f4 [1319, 10]
000000 6a 56 da 3e d8 2d 9f bd a0 1e d7 3d aa ee 90 be
       0.42644054 -0.07772416 0.10503888 -0.28307086
000010 e0 ac 7a be f4 59 09 3e 40 98 69 3d 70 fa 69 bd
       -0.24480009 0.1341322 0.057029963 -0.0571236
000020 20 60 06 bd 5a 01 d8 3e 14 fa 8b 3e 78 e1 43 3e
       -0.032806516 0.4218853 0.27339232 0.19128978
000030 b4 bd 83 3e 80 62 8e be a0 8b d9 3e ac c7 58 be
       0.2573067 -0.27809525 0.42489338 -0.21169919
000040 c2 82 cf 3e 5a ae e9 3e ae ce e6 be c8 5d f9 bd
       0.40529448 0.45640832 -0.4507956 -0.121760905
000050 60 68 9d 3c 20 c3 db bd 4a 12 f7 be d8 f2 f7 bd
       0.019214809 -0.107305765 -0.4825614 -0.12106866
000060 bc 1a cb 3e 90 07 c5 bd 90 8e a5 bd cc 62 05 be
       0.39668834 -0.09620583 -0.08083832 -0.1302597
000070 e0 84 9f 3c 68 2c 55 3e 98 68 e8 3d b0 6a 7f 3d
       0.01947254 0.20817721 0.11348075 0.062357605
000080 e0 6c e6 3d 3e 20 e6 3e 30 45 b2 bd c2 9e f6 be
       0.11251235 0.44946474 -0.08704603 -0.48167998
000090 a0 b1 c3 bd 80 ce 53 be b8 3e e3 3e 60 86 a3 be
       -0.09555364 -0.20684242 0.44383788 -0.31938457
0000a0 1a 72 d9 be a0 21 1c 3e 60 98 b2 be d9 1d f6 bc
       -0.42469865 0.15247202 -0.34881878 -0.03004353
0000b0 4a a9 c3 3d fc 01 79 be 00 46 9c bc e9 7d 1e bf
       0.09553774 -0.24317163 -0.019076347 -0.61910874
0000c0 32 30 94 3e 46 c8 6a 3e 1f 62 2e be 43 91 b2 3d
       0.2894302 0.22927961 -0.17029618 0.08719113
0000d0 51 e0 4c 3e f5 6a 67 3d 8d fc 49 3c 00 0f d4 3e
       0.20007445 0.056498487 0.012328279 0.41417694
0000e0 c3 2a 80 3e 8a 6e d3 3e a4 aa e5 3e a1 d9 a2 3e
       0.25032625 0.41295272 0.4485675 0.31806663
0000f0 f3 8d 57 be 67 37 df 3d 11 75 2a 3f 2d a8 91 3e
       -0.21050243 0.10899239 0.6658488 0.2844862
000100 e3 5a 79 be 7e e2 d5 3e 53 83 82 3e 78 51 0c 39
       -0.24351077 0.41774362 0.25490817 0.0001338179
000110 16 a3 89 3e 18 e6 e0 3e 5e 9b 98 ba 78 4b 98 3e
       0.26882237 0.43925548 -0.0011642983 0.29745078
000120 92 22 c9 be 88 17 49 be 14 d7 cc 3d 73 48 20 bf
       -0.39284188 -0.19637883 0.100019604 -0.6261055
000130 4f b5 aa be 8c c2 0f bd 6e c1 75 be 39 8f b8 3e
       -0.33341452 -0.035097644 -0.23999569 0.3604677
000140 3d df 02 3d 08 3e 14 bd 46 d3 40 be 0f 07 1b 3f
       0.031951178 -0.03619197 -0.18830594 0.60557646
000150 91 76 8c 3e c1 3f 55 bd d7 09 b0 be b4 91 92 be
       0.2743421 -0.052062754 -0.34382507 -0.28626788
000160 6b b6 bf be 93 da 3e 3e d3 e7 e9 3e a6 61 0f 3f
       -0.3744386 0.18638067 0.4568468 0.56008375
000170 cb 06 0d 3e 76 ca a9 be 20 90 ce bd a9 8b 94 3e
       0.13772123 -0.33162278 -0.100860834 0.29012802
000180 4f 89 0d be ab 29 3b be c0 72 ac 3e b1 4e 82 be
       -0.1382191 -0.18277614 0.33681297 -0.25450662
000190 f8 51 c8 3d 41 c4 9b 3e 23 76 9e 3e cf 5a 0c 3f
       0.09781259 0.30423167 0.30949506 0.5482606
0001a0 88 13 0b 3d b9 f1 d7 3e 5a 93 cc 3e 12 d3 b4 3e
       0.033954173 0.42176607 0.3995617 0.35317284
0001b0 34 d1 0d bd 08 25 72 3e 87 a7 56 be b3 9a ff 3d
       -0.03462334 0.23646939 -0.20962344 0.124806784
0001c0 7e a4 ae 3e 71 ee 26 3e 1b ed 05 3f ef 86 d6 be
       0.34109873 0.16301896 0.5231492 -0.4189982
0001d0 d2 f1 80 be 74 0e 99 3d 45 6c eb 3d dd e4 4a 3e
       -0.25184494 0.0747346 0.1149526 0.19813867
0001e0 cb 19 67 3e 8b 4e 0c bf 9a 1c bb bb 5c 8a c2 3d
       0.22568433 -0.5480735 -0.0057101967 0.09499046
0001f0 f7 b6 37 be 84 94 bf be eb 91 11 bf 17 cb 75 be
       -0.1794089 -0.37417996 -0.5686328 -0.24003254
000200 73 e2 10 bf 04 09 54 3e 86 1c da be a1 e7 cf 3d
       -0.56595534 0.20706564 -0.42599887 0.101516016
000210 32 3b 4f 3e 6b a9 3f bd 2f 4d f8 3d d4 61 45 3e
       0.20237425 -0.04679243 0.121240966 0.192756
000220 bf 7e 24 be c8 2a e0 3d 65 76 fa 3e b2 94 23 3f
       -0.16063975 0.1094566 0.48918453 0.63898766
000230 4e c0 55 be c4 49 74 be 7c 3f e8 bc 91 7a 88 be
       -0.2087414 -0.23856264 -0.028350584 -0.2665601
000240 af 20 a1 3d a0 98 ff bc 49 55 a1 3e be a1 ef 3d
       0.07867562 -0.031200707 0.3151038 0.11700772
000250 be 40 05 bd 0f c5 4e 3e e6 67 00 3d 86 c0 6d be
       -0.032532446 0.2019236 0.031349085 -0.23217973
000260 b4 71 40 3e 7c 71 23 3e 69 38 39 3e 93 53 8d 3e
       0.18793374 0.1596126 0.18087925 0.27602825
000270 4d f0 9d be e0 0b 13 bd b4 d8 86 be ff 4a ae 3e
       -0.30847397 -0.035899997 -0.26337206 0.34041592
000280 1e 10 eb 3e 1c 93 e9 3d c0 65 bc 3c 65 7c db 3e
       0.45910734 0.11405012 0.022997737 0.42868343
000290 e9 05 21 be ae f7 7c be 1a 71 d9 be 56 97 1b 3e
       -0.15724911 -0.24703857 -0.42469102 0.15194449
0002a0 41 26 d4 3e 0b cf 02 be 4d 79 85 3e 86 aa ed be
       0.41435435 -0.12774293 0.26069108 -0.46419162
0002b0 8f a0 42 3e 2b ac f8 3e 4a da b1 3e 07 a2 cc be
       0.1900656 0.48568854 0.34736854 -0.39967367
0002c0 1c 9b b6 3d a9 42 8c 3e 3f 20 5c be ef 3a 21 bd
       0.089163035 0.27394608 -0.21496676 -0.039362844
0002d0 d2 0e 12 be f5 5f 86 3e 53 f6 82 3e 1a dd 21 3f
       -0.14263466 0.26245084 0.25578555 0.63228
0002e0 c6 c6 ff 3c 45 7e 6a be 65 58 0e bb 7c 2e bb be
       0.031222712 -0.2289973 -0.0021720168 -0.36558902
0002f0 33 a7 18 be da 1c 6d 3e 75 36 aa be 43 f5 64 3e
       -0.14907531 0.23155537 -0.33244672 0.22359185
000300 02 09 f4 be d2 1e ef bd 02 e2 c5 be 42 09 a9 3d
       -0.47663122 -0.116758004 -0.38648993 0.08253719
000310 ca c5 c4 3d 25 fd 8d 3e d1 aa 68 be e2 b0 7c 3e
       0.09608038 0.27732196 -0.22721411 0.2467685
000320 d8 d1 bd 3d 5a d5 c5 be 5c 54 cc be 3b 38 2c 3f
       0.0926854 -0.38639337 -0.3990811 0.672733
000330 61 61 1f 3f c2 23 95 bc 16 ad f7 3e f9 9d e0 3d
       0.62257963 -0.018205527 0.48374242 0.10967631
000340 e6 6b 8d 3e df b4 09 bd 26 76 83 bc e8 0b ab be
       0.27621382 -0.033619758 -0.016047549 -0.3340752
000350 c2 d7 91 be a9 bd 4f 3e 92 b6 2c 3d 71 6b 6d 3e
       -0.28484923 0.20287193 0.0421663 0.23185517
000360 37 44 f4 3d db 77 d0 bc f6 df d5 be 49 76 9f 3e
       0.119270734 -0.025447777 -0.4177243 0.31144932
000370 0f a7 20 3e ad b3 44 3e 01 88 b0 be 63 48 5f be
       0.15688728 0.19209166 -0.34478763 -0.21804957
000380 a0 a5 05 3c 89 78 05 bf 03 5d ac 3d 8f 39 ea be
       0.008157164 -0.5213705 0.08416178 -0.4574704
000390 05 92 83 be 54 06 e9 be af 47 fd bb 34 a3 d8 3e
       -0.25697342 -0.4551264 -0.0077294926 0.42312014
0003a0 eb b7 57 3e 59 42 bd bc e6 38 ff 3e d7 11 dd bd
       0.21066253 -0.023102926 0.49848098 -0.10794418
0003b0 34 c5 16 3f bd e9 da 3d 27 0a 1e 3e 50 c6 a2 3e
       0.5889466 0.10689113 0.1543356 0.31791925
0003c0 cf 3a f1 be c6 b0 ad be 17 ea d8 3e dc 94 98 be
       -0.4711518 -0.3392393 0.42366096 -0.2980107
0003d0 16 c6 0d 3f ac b5 91 bd 69 b0 03 3e 30 a5 2d 3f
       0.5538038 -0.07114729 0.12860264 0.6783018
0003e0 0f 5e 15 3f 4a 52 9e 3e 91 4c 0f 3f 51 ca 03 3f
       0.5834665 0.30922157 0.55976206 0.51480585
0003f0 97 a2 c9 be e0 f9 61 be e4 d6 dc 3d fb 7b 1c 3f
       -0.3938186 -0.22067976 0.10783175 0.6112668

fc.weight f4 [32, 10]
000000 77 8f c9 3d ad 7a ff 3e 94 6f 25 3e 1d ba 00 be
       0.09841817 0.49898282 0.16155845 -0.12570997
000010 d4 95 db 3e fe 47 16 3e 32 22 a8 3c 8c bd c7 3e
       0.42887747 0.146759 0.020524118 0.390118
000020 9f 0a 9c 3e 74 89 b7 3e 14 50 64 3e cf 81 c6 3e
       0.30476853 0.35847056 0.22296172 0.3877091
000030 71 20 20 3d 2c 9b 06 3e 61 9c 0e 3f cf 35 09 be
       0.03909344 0.13145131 0.55707365 -0.13399433
000040 de 46 e6 bd 0a b6 09 be 91 25 10 be bd b7 18 3f
       -0.112439856 -0.13448349 -0.1407683 0.5965536
000050 26 bc ad 3e 23 30 9c be cf d7 17 3e 4e 07 07 3f
       0.33932608 -0.30505475 0.14828418 0.5274552
000060 98 3d b9 3d 67 b0 07 3e 2d 32 0f 3f 62 0a 7e 3e
       0.09044951 0.13250886 0.5593594 0.24808648
000070 52 2b 54 be 39 7d 38 3e 33 03 c4 be cc 26 50 3e
       -0.2071965 0.18016519 -0.3828369 0.203273
000080 99 69 a9 be 22 e6 27 3d 2b d0 4b 3e 29 6d f6 be
       -0.33088377 0.040990956 0.19903629 -0.48130158
000090 1c 1a a7 be d5 2d 96 3e 1d 24 67 be 14 4d c1 be
       -0.32637107 0.29331842 -0.2257237 -0.37754118
0000a0 21 87 cd bd 67 61 83 bd fc b0 ab 3c 21 05 fa 3e
       -0.100355394 -0.064150624 0.020958416 0.48832038
0000b0 39 fb 7a 3c 3b ea 0c 3e 65 ca 01 be 06 b8 49 be
       0.015318685 0.13761227 -0.12674864 -0.19699106
0000c0 34 00 72 be bc 8f 8c 3e 57 34 a8 3e 69 22 88 3e
       -0.2363289 0.2745341 0.32852432 0.26588753
0000d0 4c 05 e3 3e 69 06 90 3c 8f cf df 3e 66 58 18 3f
       0.4433998 0.017581182 0.43713042 0.59509885
0000e0 5d d7 37 3f 3e d2 18 3f 80 e6 02 be e8 a0 30 3f
       0.71812993 0.59695804 -0.12783241 0.68995523
0000f0 7c 7f ef 3e f5 79 64 3e f0 79 33 3f 64 3d b7 3e
       0.4677695 0.22312148 0.70107937 0.35789025
000100 d2 0e 05 be 4c 1e 43 3f ed 44 1d bd 9a e4 2b 3f
       -0.12993935 0.76218104 -0.03839581 0.67145693
000110 e9 b8 91 3e 59 8e ca 3e 74 f4 89 3d cb 8a 53 3d
       0.28461388 0.39561728 0.06736079 0.051646035
000120 f2 22 3e bd e4 51 45 3f 9f 86 05 3f 66 96 42 3f
       -0.046420045 0.7707808 0.5215854 0.7601074
000130 81 82 ee 3e 31 9e dd 3e 0e 46 14 3f 58 f6 3f 3f
       0.46583942 0.43284753 0.57919395 0.74985266
000140 98 3c 04 3f f6 4f 1f 3f 1a 5c 51 3e 70 a6 6c 3e
       0.5165496 0.62231386 0.2044529 0.23110366
000150 8e d0 e7 bc 20 21 2f be 2e 63 c3 3e 7f 64 a7 3e
       -0.028297689 -0.1710248 0.38161606 0.3269386
000160 62 fc 49 3f cf 6e e2 3e 14 3d 3b be 8a fb 7b 3a
       0.7890073 0.44225165 -0.18285018 0.00096123724
000170 a9 61 c7 3e ae 1f cb 3e 09 c5 04 3b d3 59 9f bc
       0.38941696 0.39672607 0.0020259044 -0.019452011
000180 9f 51 06 3f 68 5a 36 3f d1 e2 83 3e 3c 60 24 be
       0.52468294 0.712317 0.25758985 -0.16052336
000190 ce 96 3a be fb e8 2b be 09 bb 16 be 71 34 c3 3e
       -0.1822159 -0.16788094 -0.14719786 0.38125947
0001a0 f3 16 2b 3f 8f f9 22 3f 6e 5f e5 3e e5 3d 04 3f
       0.6683189 0.63662046 0.4479937 0.51656944
0001b0 e2 53 0e 3f ae 5f 39 bc 18 3f 39 3f 61 8d 28 3f
       0.55596745 -0.011314316 0.723619 0.6584073
0001c0 88 96 18 3f 03 78 cd 3e 48 8c c6 3d 4d ff 85 bc
       0.5960469 0.40130624 0.09694725 -0.016357088
0001d0 56 f9 77 3e e0 8f 2a be 22 49 c8 3e b9 6a e5 bb
       0.24216208 -0.16656446 0.39118296 -0.0070012477
0001e0 42 b5 19 be f1 06 41 3e 2f 56 aa 3e f1 d8 e5 3e
       -0.1501055 0.18850304 0.33268878 0.44892076
0001f0 3b e1 3b 3f d0 ff 2f 3e 9e e2 61 3e 6b 9f 31 3e
       0.7339055 0.17187428 0.22059104 0.1734597
000200 b7 b4 3e 3f 32 5d 64 3e 05 eb 4c 3e d6 01 d3 3e
       0.744945 0.22301176 0.20011528 0.41212338
000210 c1 cf 1f 3f 7b 73 5d be 34 ca 32 3f 88 f6 11 3f
       0.6242638 -0.21626084 0.6983979 0.570168
000220 09 2d 19 3f ec a5 14 3f 49 68 53 3e 3f a9 25 3f
       0.59834343 0.58065677 0.2064525 0.64711374
000230 7a 6f f3 3e d3 26 97 3e ff de 28 3f 13 5e 48 3c
       0.47545987 0.29521808 0.65965265 0.01222946
000240 54 b8 a9 3e 96 11 3e 3f 99 38 0c 3e 95 af e3 3d
       0.33148444 0.74245584 0.13693465 0.11117474
000250 61 c4 12 3e 65 47 db 3c fc ac 49 3e 11 41 10 be
       0.14332725 0.026767442 0.19694895 -0.14087321
000260 10 8b 8c 3d f0 34 08 3e ca 11 1d 3f c5 13 1e 3f
       0.068624616 0.13301444 0.6135527 0.61748916
000270 c3 a8 1c ba 84 65 13 be e4 8e cb bc 29 ad 01 be
       -0.0005976075 -0.14394194 -0.024848409 -0.12663712
000280 9a 62 bd 3e 80 08 96 3e c0 0a 10 3f 0d 74 6b be
       0.3698929 0.2930336 0.56266403 -0.22993489
000290 fa 19 4c 3e e3 66 9e be 9b 89 f2 bd 41 4c 1a 3f
       0.19931784 -0.3093787 -0.118426524 0.60272604
0002a0 fb 26 ea bd 1a 2d 18 3f 82 bf 22 be ec 82 f3 3e
       -0.11433216 0.5944382 -0.15893367 0.47560823
0002b0 eb 9f e0 3d 4d c4 1a 3f 16 5f c1 3e 52 1e 2e 3f
       0.10968002 0.6045578 0.37767857 0.68015015
0002c0 3e 9a 6c 3d 61 bd 27 3f a2 4c 2d 3e 11 be ba 3d
       0.057764284 0.65523344 0.16923764 0.091182835
0002d0 69 39 c8 3c 8f 45 9c 3e 1a d4 26 be 8f 3a 94 3e
       0.024441438 0.3052182 -0.16291848 0.28950927
0002e0 2a 94 91 3e db 44 28 3f 57 d4 17 bd 71 7c 22 3f
       0.28433353 0.65730065 -0.037067737 0.6347113
0002f0 df e7 a5 bd 90 a5 d3 3e 5a 3c c8 3e 59 ae 2f 3f
       -0.081008665 0.41337252 0.39108545 0.6862541
000300 0d e1 14 3f af 25 2c 3f 70 3d 00 3f 47 11 55 bd
       0.581559 0.67245 0.50093746 -0.05201843
000310 c7 6c 8b 3d 87 97 1f 3f 14 80 0b 3f ae 56 28 3f
       0.06807857 0.6234059 0.54492307 0.6575726
000320 ad 4e bf 3e 83 36 01 3e 03 82 c7 3b b9 9a 25 3f
       0.37364712 0.12618451 0.0060884967 0.64689213
000330 10 f6 b6 36 aa 67 cb 3e fa 3c a8 3e 2e b2 fe bd
       5.452668e-06 0.39727527 0.3285902 -0.12436329
000340 41 9a 9b bd 03 0b b8 3e f3 75 05 be 70 3f 93 3e
       -0.07597781 0.359459 -0.13033275 0.28759336
000350 99 06 23 3f 3c 7c cd 3d 69 78 26 3f 3f b9 49 3e
       0.6368194 0.100334615 0.6502748 0.19699572
000360 a1 c7 9e bc d1 76 33 3f 2d 15 39 3e 80 d8 23 3f
       -0.0193823 0.70103174 0.18074484 0.6400223
000370 af 3b 17 3f 26 2e b3 3e 9f b0 2d 3e 3a 4f 4b 3d
       0.59075445 0.34996146 0.16961907 0.049636103
000380 e2 85 da 3e 5d e0 30 3e 24 46 6c 3e 51 9d 65 bc
       0.4268027 0.17273088 0.23073632 -0.014014558
000390 3d 0e 24 3f 15 89 f7 3b 04 06 01 3f 4e 1d c5 3e
       0.64084226 0.0075541832 0.50399804 0.3849892
0003a0 f6 a4 0b 3f 1c f5 f1 3e d1 2c ee 3e db 96 66 3e
       0.54548585 0.47257316 0.46518567 0.22518484
0003b0 e7 c1 37 3f 0e a4 b7 3e 8a 6c c5 3e 64 5f 02 3f
       0.71780246 0.3586735 0.3855937 0.50926805
0003c0 2b a8 8a 3e 9d 3f 4b 3d db 5d 34 3f 15 8c c9 bd
       0.27081427 0.049621213 0.7045571 -0.09841172
0003d0 9c c2 41 3f 7e ce e1 3e 2c 3f 12 be 8e 66 34 be
       0.75687575 0.44102854 -0.1428191 -0.17617247
0003e0 f0 8b c0 3e 67 0c 37 3f f4 42 8e 3e 39 4b 09 3e
       0.37606764 0.715033 0.27785456 0.13407601
0003f0 08 43 ee 3d d2 d7 29 3f f1 cf 0e be 1c 87 ed 3e
       0.11633879 0.6634494 -0.13946511 0.46392143

fc.bias f4 [32]
000000 df ff 21 3e 11 68 72 3e b6 4c 25 3e 7c 76 21 bd
       0.15820263 0.2367251 0.16142544 -0.039419636
000010 b1 26 81 3e e0 c7 7c 3e 94 f9 6d 3e 7c f5 6c 3e
       0.25224832 0.24685621 0.23239738 0.2314052
000020 0c 45 87 3e 9f 62 80 3e 77 90 79 3e f8 a2 82 3e
       0.26419866 0.25075242 0.24371515 0.2551496
000030 14 e3 5f 3e 47 9f 65 3e f2 80 78 3e e0 1a 86 3e
       0.21863967 0.2242404 0.24267939 0.2619238
000040 d6 a2 02 3e 03 48 64 3e 29 ce 7b 3e 31 f4 68 3e
       0.1275743 0.22293095 0.24590363 0.22749402
000050 33 ec 83 3e 71 a7 68 3e ad 8b 79 3e c8 76 72 3e
       0.25766143 0.22720124 0.24369688 0.23678124
000060 9d 4f 79 3e 13 6c 83 3e 04 95 54 3e 02 e3 35 3e
       0.24346776 0.25668392 0.2075997 0.17762378
000070 82 88 56 3e 20 c2 b7 bc b0 5d 7a 3e 82 19 73 3e
       0.20950511 -0.022431433 0.24449801 0.23740199

fc2.weight f4 [16, 32]
000000 2f 34 0c be 48 60 fc 3c 36 2e 30 bd c6 0f a5 3d
       -0.13691781 0.03080763 -0.04301282 0.08059649
000010 43 e9 79 3e b4 93 fa bd a2 77 66 3d eb b3 bc bd
       0.24405389 -0.122352034 0.056266434 -0.09214004
000020 d3 6d 1f 3c b1 29 1c 3e e7 cd 93 3d 69 b6 2a 3e
       0.009730774 0.15250279 0.07217007 0.16671146
000030 21 00 0b be 57 6b 82 bd 4e 06 f5 bd 45 43 19 3e
       -0.13574268 -0.0636813 -0.11964093 0.14967068
000040 a2 cc 88 3c 83 27 15 3e a6 58 82 bd 9c a9 a4 bd
       0.016699139 0.14565854 -0.063645646 -0.08040163
000050 84 a9 00 3d 66 72 fc bd 69 5f 1e 3e 79 d0 bc bd
       0.031411663 -0.12326507 0.15466084 -0.092194505
000060 c8 fb 18 3d 1a e8 ba bd 0a 06 aa 3e 72 2b 23 bd
       0.037349492 -0.09126301 0.33207732 -0.039836355
000070 04 a2 e1 3d 78 cd 7d 3e 03 ac d2 bc 61 8a e8 3d
       0.1101723 0.24785411 -0.025716787 0.11354519
000080 37 8e 21 3e 5f e4 1a 3e 6f 6c 6b 3d bc cb 2f be
       0.15776907 0.15126179 0.057476457 -0.17167562
000090 f7 04 1e be f4 28 af 3d 0d 5c c7 3c 4a 82 8e bd
       -0.15431581 0.08552733 0.024335885 -0.069584444
0000a0 62 0d 0c 3d 4c fd 83 bd 9a 59 1c be 6b 2a 27 be
       0.03419245 -0.06444797 -0.15268555 -0.16324775
0000b0 6e ee 86 bc 79 a0 82 3d 98 20 d4 3d 3c 45 b4 3c
       -0.016471114 0.06378264 0.10357779 0.02200567
0000c0 6d 58 d6 3d a6 f1 92 bd 13 b9 15 be 25 3f ed 3d
       0.10466085 -0.07174997 -0.14621381 0.115843095
0000d0 07 27 9f bd 48 6f f4 bd 8e 7a 1e 3e 15 50 93 bd
       -0.07771116 -0.11935288 0.15476438 -0.07193009
0000e0 90 b0 83 3d f5 f2 1c bd 8e 8a ab 3d 94 8c b1 bd
       0.06430161 -0.03831764 0.083760366 -0.08669391
0000f0 b9 5f 1e be ab 48 e9 3d a6 2d 25 be 82 6d 32 be
       -0.15466203 0.113908134 -0.16130695 -0.17424586
000100 bd cc 7e 3e c0 75 f0 3e 8a fe 88 3e b2 e8 d2 3d
       0.24882789 0.46964836 0.26756698 0.10298289
000110 db fd 2d 3e 0a 41 14 3e d5 76 99 3e ca 08 4b 3e
       0.1699137 0.14477935 0.29973474 0.19827572
000120 0e 9d c1 3e 19 fe e3 3e e7 2b dc 3e 9c 84 9b 3e
       0.37815136 0.445298 0.43002245 0.3037461
000130 5c a1 d3 3e c1 07 f9 3d 57 7d b4 3e e0 30 e7 3e
       0.41334045 0.12159682 0.35251877 0.45154476
000140 b4 87 22 3e a3 95 e2 3e 0d ce ec 3e 64 e5 b7 3e
       0.15872079 0.4425479 0.46250954 0.359172
000150 a8 4d d8 3e 4d 4f e6 3e b8 6b 20 3e ad b9 a5 3e
       0.42246747 0.44982377 0.15666091 0.32368222
000160 e3 af d5 3e 3f 55 87 3e 0c f2 5e be b0 93 d4 3e
       0.41735753 0.26432225 -0.21772021 0.41518927
000170 f4 0a 4c 3e fc 50 d6 bc bc ac e1 3e 83 89 89 3e
       0.19926053 -0.026161663 0.44077098 0.26862726
000180 69 e0 00 3d 0f 58 20 be 1b ab 1d 3d dc 71 8e 3d
       0.031464014 -0.15658592 0.038493257 0.06955311
000190 d4 ef 15 3e 5f 61 d4 3d 2f 70 08 be b0 5c d9 bd
       0.14642268 0.103701346 -0.13324045 -0.10613382
0001a0 6f 15 c3 3d 3f 5f 01 3e bf 74 37 bd 46 73 11 3e
       0.095255725 0.1263399 -0.044789072 0.1420413
0001b0 ce 2a c1 3d 39 f6 35 bd 6b 55 97 3d 96 2c 2f 3d
       0.094319925 -0.04442427 0.07389339 0.04276713
0001c0 7a b0 1b 3c 59 a2 ae 3b ba 90 12 3e 12 3b 29 be
       0.0095025245 0.005329412 0.14313021 -0.1652644
0001d0 56 60 a0 ba f0 98 28 be 4a a2 17 be 65 f4 06 3d
       -0.0012235742 -0.16464591 -0.14808002 0.032947917
0001e0 cb e0 08 3e 15 14 d2 3d bb eb f1 bc d5 ea c0 3d
       0.13367002 0.102577366 -0.02953135 0.09419791
0001f0 33 90 11 3e c3 f6 dc bc c3 e8 31 be e9 dc a7 bd
       0.14215164 -0.026973134 -0.17373948 -0.08196432
000200 2f 50 ad 3e 98 01 63 3e 42 cf 88 3e bd f1 6d bd
       0.33850238 0.22168577 0.26720625 -0.058091868
000210 68 56 c6 3e b2 bc 4a 3e 86 ad bb 3e b3 04 ab 3e
       0.38737798 0.19798544 0.36655825 0.33402023
000220 9c 5b 9a 3e f0 cf 02 3e 35 13 8d 3e 75 4e 7f 3e
       0.30148017 0.12774634 0.27553716 0.24932273
000230 b1 12 9a 3e a1 89 eb 3e 4f 79 84 3e f0 dd ae 3e
       0.30092385 0.4600344 0.258738 0.341537
000240 af bf 8c 3e c3 52 67 3e ab 67 26 3e ea 42 b3 3e
       0.27489993 0.22590165 0.16250484 0.3501199
000250 ea eb 9f 3e 08 c5 2d 3e 23 af 66 3e 30 d3 29 3e
       0.31234676 0.16969693 0.22527747 0.16584468
000260 f7 42 97 3e 57 f9 b7 3e 0b c3 a3 be 4a c2 8c 3e
       0.29543278 0.3593242 -0.31984743 0.2749198
000270 a6 a2 39 3e ea ed 4f 3d 2a f9 3a 3e 44 32 ea 3e
       0.18128452 0.050764002 0.18259111 0.45741475
000280 5e 67 9e 3e 2c 00 a5 3e f6 50 76 3e 50 d1 0c be
       0.30938238 0.32226694 0.24054322 -0.13751721
000290 14 6f b3 3e 36 67 48 3e 3a 25 40 3e cc c7 c7 3e
       0.35045683 0.19570622 0.18764201 0.3901962
0002a0 ce c6 9f 3e e3 b9 a8 3e 0a 5e 85 3e 50 5e 72 3e
       0.31206363 0.3295432 0.2604831 0.2366879
0002b0 1f cf cc 3e 89 7d 5e 3e 5f 8f 93 3e 10 38 22 3e
       0.4000177 0.21727575 0.2882032 0.15841699
0002c0 59 ae 3b 3e f7 f6 1e 3e 2b a8 c0 3e 0d d9 d2 3e
       0.18328227 0.15523897 0.37628302 0.41181222
0002d0 29 c9 92 3e 1d ba 3f 3e 50 5b 7b 3e 2c 83 77 3e
       0.28669098 0.1872334 0.24546552 0.24171132
0002e0 2c b7 23 3e 83 58 8a 3e 2e 87 80 be ba cf 76 3e
       0.15987843 0.27020654 -0.25103134 0.24102679
0002f0 bf 17 35 3e 9d 60 3c be a9 51 90 3e 24 95 b5 3e
       0.1768484 -0.1839623 0.28187302 0.35465348
000300 86 e6 07 be f5 fa a0 bd 81 26 e1 3d bd ae e4 bd
       -0.13271531 -0.07860366 0.10993672 -0.11166141
000310 cd a8 28 be f6 a6 98 bd 3f bf 08 be a9 e7 ba 3c
       -0.16470642 -0.0745372 -0.13354205 0.022815542
000320 2a 70 74 bd af b0 da bd a2 f7 15 3e 66 11 04 3e
       -0.05967728 -0.10678231 0.14645246 0.12897262
000330 76 ea 10 3e 2e 0f 2e be 08 c7 0c 3e fd e0 e0 3d
       0.1415194 -0.16997978 0.137478 0.10980413
000340 b5 6e 2e 3d 42 f3 c6 bd 4e a1 16 be 81 4d 14 be
       0.042586047 -0.097143665 -0.1470997 -0.1448269
000350 c4 33 2c be 55 e7 73 bb a3 3e 11 bd db d5 09 3e
       -0.16816622 -0.0037216742 -0.035460126 0.13460486
000360 6e 30 81 bd 15 45 10 3e da a2 01 3e 52 c4 6c 3c
       -0.06308065 0.14088853 0.12659779 0.014451103
000370 87 20 83 3d 3e 9d 31 be fe b1 17 3d 1f e6 42 bc
       0.064026885 -0.1734514 0.03703498 -0.011895685
000380 3e ba 37 3e 1f 67 33 3e 0d 0d aa 3d 31 3a c0 bd
       0.1794214 0.17519806 0.083032705 -0.09386099
000390 ac c3 d6 3e 01 0c e0 3e 1f 50 ba 3e 17 e0 b3 3e
       0.4194616 0.43759158 0.36389253 0.35131904
0003a0 3c 4d a9 3e 4a 08 98 3e 7c ae 1c 3e 80 b5 56 3e
       0.33066738 0.29693824 0.15300936 0.20967674
0003b0 63 30 d4 3e d0 23 8a 3e fa dd cb 3e e3 82 b1 3e
       0.41443166 0.26980448 0.39817792 0.3467017
0003c0 3b 70 d7 3e da 79 1e 3e c9 08 95 3e e0 b7 8e 3e
       0.42077813 0.1547617 0.29108265 0.2787466
0003d0 2e 05 90 3e 21 66 93 3e 02 20 e3 3e e6 ca e0 3e
       0.28128952 0.28788856 0.44360358 0.439048
0003e0 4d 61 68 3e 9d a6 ca 3e f6 d7 c7 be 87 c1 28 3e
       0.22693367 0.3958024 -0.39031953 0.16480075
0003f0 2f 58 30 3e ba d3 be bd 4f d3 cc 3e ef 81 da 3e
       0.1722114 -0.093177274 0.40004966 0.42677256

fc2.bias f4 [16]
000000 d8 22 21 3d d3 79 b2 bd 9b e1 8c 3e 95 31 00 be
       0.03933987 -0.087146424 0.27515873 -0.12518914
000010 2e 34 4e 3e 12 76 96 3e 95 d3 b1 bc 77 d6 7f 3e
       0.20137092 0.29386955 -0.021707335 0.24984156
000020 14 f5 a0 bd 96 d9 b2 3e e0 fd 6b bd f5 b2 be 3d
       -0.07859245 0.3493163 -0.05761516 0.09311477
000030 46 55 9d 3e fb 0d 12 3e ff 96 91 3e c9 8b a4 bd
       0.3072912 0.14263146 0.28435513 -0.080344744

fc3.weight f4 [1, 16]
000000 17 03 bd be 40 e8 ee 3d 92 a5 b6 3e 7d 33 a6 bd
       -0.3691642 0.11665392 0.35673195 -0.08115289
000010 bb b1 bd 3e 3b 4a db 3e aa 38 1e be 71 cd f3 3e
       0.3704966 0.4283007 -0.15451303 0.47617677
000020 3a 5d 1a be 52 a9 c5 3e fc b9 a1 bd fe 17 1e be
       -0.15074626 0.38605744 -0.07896802 -0.1543884
000030 5d 3b 97 3e 51 06 0a 3f ad a9 a2 3e 8f aa 5f be
       0.29537478 0.5391589 0.31770077 -0.21842407
